…
getting about fifteen or sixteen for half days which has been the case ever since we went back during August Break last year when we had two weeks then a week before Christmas break where there was no school because everybody else just took time out like all schools did across Ontario even though most people didn't want them gone anyway especially if you have your own businesses doing what everyone wants more than anything these days whether its a bakery catering service or a massage parlour which is what lots do any"}]
Model before:

 LlamaForCausalLM(
  (model): LlamaModel(
    (embed_tokens): Embedding(32000, 2048)
    (layers): ModuleList(
      (0-21): 22 x LlamaDecoderLayer(
        (self_attn): LlamaAttention(
          (q_proj): Linear(in_features=2048, out_features=2048, bias=False)
          (k_proj): Linear(in_features=2048, out_features=256, bias=False)
          (v_proj): Linear(in_features=2048, out_features=256, bias=False)
          (o_proj): Linear(in_features=2048, out_features=2048, bias=False)
        )
        (mlp): LlamaMLP(
          (gate_proj): Linear(in_features=2048, out_features=5632, bias=False)
          (up_proj): Linear(in_features=2048, out_features=5632, bias=False)
          (down_proj): Linear(in_features=5632, out_features=2048, bias=False)
          (act_fn): SiLU()
        )
        (input_layernorm): LlamaRMSNorm((2048,), eps=1e-05)
        (post_attention_layernorm): LlamaRMSNorm((2048,), eps=1e-05)
      )
    )
    (norm): LlamaRMSNorm((2048,), eps=1e-05)
    (rotary_emb): LlamaRotaryEmbedding()
  )
  (lm_head): Linear(in_features=2048, out_features=32000, bias=False)
)
Complete this poem: Do not go gentle into that good night, Old age should burn and rave at close of day; Rage, rage against the dying of the light. This is my body on a gospel theme, This corpse for corns on the head, This tombstone, for me to die in, I'll give you life with these words, My life will live eternally!
Rock-Abyss (1987) - Rock-a byzantine (1200-465 BCE).
The Book of Revelation (Rev 3-5), Revelations (Book of Truth) (Revs 2 & 3): The Reign of God: The Gift Of Life: The Gathering, The Rapture And The Harvest: the End Times and the Great Tribulation, The New
Model after:

 LlamaForCausalLM(
  (model): LlamaModel(
    (embed_tokens): Embedding(32000, 2048)
    (layers): ModuleList(
      (0-21): 22 x LlamaDecoderLayer(
        (self_attn): LlamaAttention(
          (q_proj): W8A16LinearLayer()
          (k_proj): W8A16LinearLayer()
          (v_proj): W8A16LinearLayer()
          (o_proj): W8A16LinearLayer()
        )
        (mlp): LlamaMLP(
          (gate_proj): W8A16LinearLayer()
          (up_proj): W8A16LinearLayer()
          (down_proj): W8A16LinearLayer()
          (act_fn): SiLU()
        )
        (input_layernorm): LlamaRMSNorm((2048,), eps=1e-05)
        (post_attention_layernorm): LlamaRMSNorm((2048,), eps=1e-05)
      )
    )
    (norm): LlamaRMSNorm((2048,), eps=1e-05)
    (rotary_emb): LlamaRotaryEmbedding()
  )
  (lm_head): Linear(in_features=2048, out_features=32000, bias=False)
)
